Flower_iris_pred.pt (torch, 3521 bytes, 6 tensors)

fc1.weight f4 [8, 4]
00000000: 80f0 86be baf8 8bbe 18df 993e 3c60 a9be
00000010: c0ae 70be 8242 8b3e 1a5e bebe 6419 7b3e
00000020: 8c9c 953e abd1 ccbc eac7 ef3e 8281 163f
00000030: 7463 083f e71c 0dbe 9022 8a3b 1739 583f
00000040: f6bc 083f 863d 993e 7ea5 14bf 4bad 02bf
00000050: 5409 e2be 7aa7 a93e 70b9 31bd 6661 b03e
00000060: ae9e d33d ecfe 3bbe 74c9 ccbe 5573 273e
00000070: 9842 a4be 4892 e3bd ec2f 983e de66 8bbe
-0.26355362 -0.273382 0.3005302 -0.33081234 -0.23504162 0.2719918 -0.3718117 0.24521405
0.29220998 -0.025002321 0.4683221 0.58791363 0.53276753 -0.13780557 0.004215546 0.8446211
0.5341333 0.2992975 -0.5806502 -0.51045674 -0.44147742 0.33135587 -0.043389738 0.3444931
0.10333 -0.18358964 -0.39997447 0.1635259 -0.32082057 -0.11111885 0.2972406 -0.2722692

fc1.bias f4 [8]
00000000: 6061 c8bc 30fc 8abd d862 71be edba a43e
00000010: adb4 0a3f 2c3b 40be 5d3a b73e cc85 26be
-0.024460495 -0.06786382 -0.23572862 0.32173863 0.5418194 -0.18772572 0.35786715 -0.16261977

fc2.weight f4 [9, 8]
00000000: 3224 153e fecf 153e a062 2fbc 2274 a8be
00000010: e12d aa3e a440 a7bd 028d 763e 7b24 59be
00000020: b0c5 13bd 2730 9b3e 1e13 9dbe e08e 5f3c
00000030: 8023 97bb cab6 9abe 7042 8cbd 4aed a5be
00000040: f871 9c3d 90e2 733d b523 f93e 2686 9dbd
00000050: b3ef 09bf f287 02be b749 53be fbd2 8c3e
00000060: 280a e83d 9d3b b4be 0050 1c3e 9168 203e
00000070: 2d1c 053f d8ca d3bd f639 af3e a8be df3d
00000080: 3f18 a3be ac4c 983d d643 b83c 5a44 5a3e
00000090: da16 09bf d0e1 d3bc 4645 6f3e ea4d 003e
000000a0: 7e59 2a3e ab43 993e 33ab 053f 3e5e 443e
000000b0: 6186 9cbe 70a0 be3c 0c9c 6e3e 0cfc a6bd
000000c0: d094 3e3d 80ff a03b 81c3 8a3e a5a6 9c3e
000000d0: 3647 b9be c7f6 99be 821a 253e 9aa1 efbd
000000e0: 0888 0d3d bd24 a4be 1ea6 0f3e b545 78be
000000f0: a837 24bd 6565 9b3e 9441 ad3d f5ee 963e
00000100: c23d 44be 2f66 a8be f7ec 90be 7c01 f8bd
00000110: c87a e1bd 908c c4bc 1e06 4f3e 6fde 9d3e
0.14564589 0.14630124 -0.010704666 -0.32901102 0.33238128 -0.08166626 0.24077228 -0.21205322
-0.0360772 0.30310175 -0.30678648 0.013644904 -0.004612386 -0.30217582 -0.068486094 -0.324076
0.07638925 0.05954224 0.48660055 -0.076916024 -0.53881377 -0.12747172 -0.20633589 0.27504715
0.11330062 -0.3520173 0.15264893 0.15664889 0.5199612 -0.10341424 0.34223908 0.10925037
-0.31854436 0.07436499 0.022493284 0.21315137 -0.53550494 -0.025864512 0.2336627 0.12529722
0.16635701 0.2993444 0.52214354 0.19176576 -0.30571273 0.023269862 0.23301715 -0.08153543
0.046528637 0.0049132705 0.27102283 0.3059589 -0.36187142 -0.3007109 0.16123393 -0.11700745
0.034553558 -0.3205928 0.14028212 -0.24245341 -0.04009214 0.30350795 0.08459774 0.29479185
-0.19164184 -0.3289046 -0.2830579 -0.12109658 -0.11009747 -0.023992807 0.20217177 0.30833766

fc2.bias f4 [9]
00000000: 0b95 b1be 3c08 52be 7341 93bd 7a3a c73d
00000010: 915f 48be af06 0fbf dc19 57be afde a0be
00000020: 555a 993e
-0.34684023 -0.20510954 -0.07190218 0.097279504 -0.19567706 -0.55869573 -0.21005958 -0.31419894
0.2995173

out.weight f4 [3, 9]
00000000: fb9c 1cbe 2cb0 d2bd 239c 8bbe 42f6 0a3f
00000010: 63d4 ae3d 806a b3be b976 f0be 011c 953e
00000020: 94b8 90bd 5c57 f93d 3a1e 81be 6ef6 363e
00000030: b3e6 18be 3dcb d3be 5065 903e 490b b43e
00000040: f8ea 053d 13f1 13be 8016 00bc 63e5 833e
00000050: 9457 2c3f fa69 e3bd eefe 053f 5c41 c93e
00000060: a737 db3e a29e 9ebe 578b 95be
-0.15294258 -0.10287508 -0.2726756 0.5428201 0.08536603 -0.3504219 -0.46965578 0.29122928
-0.070664555 0.121748656 -0.25218374 0.17867443 -0.14931755 -0.41365996 0.28202295 0.3516486
0.032694787 -0.14447431 -0.007817864 0.25760946 0.67321134 -0.11104198 0.52342117 0.39307678
0.42815897 -0.30980402 -0.2920787

out.bias f4 [3]
00000000: 32d7 0d3f 4f95 063f 0f24 18bf
0.55406487 0.52571577 -0.5943002
